…
2023-07-13 08:35:57.365953: I tensorflow/compiler/xla/service/service.cc:168] XLA service 0x2b377f1ce00 initialized for platform Host (this does not guarantee that XLA will be used). Devices:
2023-07-13 08:35:57.366160: I tensorflow/compiler/xla/service/service.cc:176]   StreamExecutor device (0): Host, Default Version
Found 34 files belonging to 12 classes.
['岩性土', '栗钙土', '棕壤', '水稻土', '湿土', '漠土', '潮土', '盐碱土', '红壤', '褐土', '高山土', '黑土']
Model: "sequential"
_________________________________________________________________
Layer (type)                 Output Shape              Param #
=================================================================
rescaling (Rescaling)        (None, 224, 224, 3)       0
_________________________________________________________________
conv2d (Conv2D)              (None, 222, 222, 32)      896
_________________________________________________________________
max_pooling2d (MaxPooling2D) (None, 111, 111, 32)      0
_________________________________________________________________
conv2d_1 (Conv2D)            (None, 109, 109, 64)      18496
_________________________________________________________________
max_pooling2d_1 (MaxPooling2 (None, 54, 54, 64)        0
_________________________________________________________________
flatten (Flatten)            (None, 186624)            0
_________________________________________________________________
dense (Dense)                (None, 128)               23888000
_________________________________________________________________
dense_1 (Dense)              (None, 12)                1548
=================================================================
Total params: 23,908,940
Trainable params: 23,908,940
Non-trainable params: 0
_________________________________________________________________
Epoch 1/50
11/11 [==============================] - 4s 376ms/step - loss: 2.2709 - accuracy: 0.2722 - val_loss: 1.8455 - val_accuracy: 0.3529
Epoch 2/50
11/11 [==============================] - 4s 369ms/step - loss: 2.0744 - accuracy: 0.3728 - val_loss: 2.0140 - val_accuracy: 0.6176
…
